…
: 32, "STRIDE": 2, "W0": 32, "WA": 5.0000, "WM": 2.5000}, "RESNET": {"NUM_GROUPS": 1, "STRIDE_1X1": true, "TRANS_FUN": "basic_transform", "WIDTH_PER_GROUP": 64}, "RNG_SEED": 42, "TEST": {"BATCH_SIZE": 1600, "DATASET": "imagenet", "IM_SIZE": 224, "SPLIT": "val_list_modified.txt", "WEIGHTS": ""}, "TRAIN": {"AUTO_RESUME": false, "BATCH_SIZE": 2560, "CHECKPOINT_PERIOD": 1, "DATASET": "imagenet", "EVAL_PERIOD": 1, "IM_SIZE": 224, "SPLIT": "train_list_modified.txt", "WEIGHTS": ""}, "_type": "cfg"}
[trainer.py:  51]: Model:
MetricModel(
  (backbone): MobileNetMock(
    (conv_bn): Sequential(
      (0): Conv2d(3, 16, kernel_size=(3, 3), stride=(2, 2), padding=(1, 1), bias=False)
      (1): BatchNorm2d(16, eps=1e-05, momentum=0.1, affine=True, track_running_stats=True)
      (2): ReLU(inplace=True)
    )
    (features): Sequential(
      (0): InvertedResidual(
        (conv): Sequential(
          (0): Conv2d(16, 96, kernel_size=(1, 1), stride=(1, 1), bias=False)
          (1): BatchNorm2d(96, eps=1e-05, momentum=0.1, affine=True, track_running_stats=True)
          (2): ReLU6(inplace=True)
          (3): Conv2d(96, 96, kernel_size=(5, 5), stride=(2, 2), padding=(2, 2), groups=96, bias=False)
          (4): BatchNorm2d(96, eps=1e-05, momentum=0.1, affine=True, track_running_stats=True)
          (5): ReLU6(inplace=True)
          (6): Conv2d(96, 32, kernel_size=(1, 1), stride=(1, 1), bias=False)
          (7): BatchNorm2d(32, eps=1e-05, momentum=0.1, affine=True, track_running_stats=True)
        )
      )
      (1): InvertedResidual(
        (conv): Sequential(
          (0): Conv2d(32, 192, kernel_size=(1, 1), stride=(1, 1), bias=False)
          (1): BatchNorm2d(192, eps=1e-05, momentum=0.1, affine=True, track_running_stats=True)
          (2): ReLU6(inplace=True)
          (3): Conv2d(192, 192, kernel_size=(5, 5), stride=(1, 1), padding=(2, 2), groups=192, bias=False)
          (4): BatchNorm2d(192, eps=1e-05, momentum=0.1, affine=True, track_running_stats=True)
          (5): ReLU6(inplace=True)
          (6): Conv2d(192, 32, kernel_size=(1, 1), stride=(1, 1), bias=False)
          (7): BatchNorm2d(32, eps=1e-05, momentum=0.1, affine=True, track_running_stats=True)
        )
      )
      (2): InvertedResidual(
        (conv): Sequential(
          (0): Conv2d(32, 192, kernel_size=(1, 1), stride=(1, 1), bias=False)
          (1): BatchNorm2d(192, eps=1e-05, momentum=0.1, affine=True, track_running_stats=True)
          (2): ReLU6(inplace=True)
          (3): Conv2d(192, 192, kernel_size=(3, 3), stride=(1, 1), padding=(1, 1), groups=192, bias=False)
          (4): BatchNorm2d(192, eps=1e-05, momentum=0.1, affine=True, track_running_stats=True)
          (5): ReLU6(inplace=True)
          (6): Conv2d(192, 32, kernel_size=(1, 1), stride=(1, 1), bias=False)
          (7): BatchNorm2d(32, eps=1e-05, momentum=0.1, affine=True, track_running_stats=True)
        )
      )
      (3): InvertedResidual(
        (conv): Sequential(
          (0): Conv2d(32, 192, kernel_size=(1, 1), stride=(1, 1), bias=False)
          (1): BatchNorm2d(192, eps=1e-05, momentum=0.1, affine=True, track_running_stats=True)
          (2): ReLU6(inplace=True)
          (3): Conv2d(192, 192, kernel_size=(3, 3), stride=(1, 1), padding=(1, 1), groups=192, bias=False)
          (4): BatchNorm2d(192, eps=1e-05, momentum=0.1, affine=True, track_running_stats=True)
          (5): ReLU6(inplace=True)
          (6): Conv2d(192, 32, kernel_size=(1, 1), stride=(1, 1), bias=False)
          (7): BatchNorm2d(32, eps=1e-05, momentum=0.1, affine=True, track_running_stats=True)
        )
      )
      (4): InvertedResidual(
        (conv): Sequential(
          (0): Conv2d(32, 192, kernel_size=(1, 1), stride=(1, 1), bias=False)
          (1): BatchNorm2d(192, eps=1e-05, momentum=0.1, affine=True, track_running_stats=True)
          (2): ReLU6(inplace=True)
          (3): Conv2d(192, 192, kernel_size=(3, 3), stride=(2, 2), padding=(1, 1), groups=192, bias=False)
          (4): BatchNorm2d(192, eps=1e-05, momentum=0.1, affine=True, track_running_stats=True)
          (5): ReLU6(inplace=True)
          (6): Conv2d(192, 56, kernel_size=(1, 1), stride=(1, 1), bias=False)
          (7): BatchNorm2d(56, eps=1e-05, momentum=0.1, affine=True, track_running_stats=True)
        )
      )
      (5): InvertedResidual(
        (conv): Sequential(
          (0): Conv2d(56, 336, kernel_size=(1, 1), stride=(1, 1), bias=False)
          (1): BatchNorm2d(336, eps=1e-05, momentum=0.1, affine=True, track_running_stats=True)
          (2): ReLU6(inplace=True)
          (3): Conv2d(336, 336, kernel_size=(5, 5), stride=(1, 1), padding=(2, 2), groups=336, bias=False)
          (4): BatchNorm2d(336, eps=1e-05, momentum=0.1, affine=True, track_running_stats=True)
          (5): ReLU6(inplace=True)
          (6): Conv2d(336, 56, kernel_size=(1, 1), stride=(1, 1), bias=False)
          (7): BatchNorm2d(56, eps=1e-05, momentum=0.1, affine=True, track_running_stats=True)
        )
      )
      (6): InvertedResidual(
        (conv): Sequential(
          (0): Conv2d(56, 336, kernel_size=(1, 1), stride=(1, 1), bias=False)
          (1): BatchNorm2d(336, eps=1e-05, momentum=0.1, affine=True, track_running_stats=True)
          (2): ReLU6(inplace=True)
          (3): Conv2d(336, 336, kernel_size=(5, 5), stride=(1, 1), padding=(2, 2), groups=336, bias=False)
          (4): BatchNorm2d(336, eps=1e-05, momentum=0.1, affine=True, track_running_stats=True)
          (5): ReLU6(inplace=True)
          (6): Conv2d(336, 56, kernel_size=(1, 1), stride=(1, 1), bias=False)
          (7): BatchNorm2d(56, eps=1e-05, momentum=0.1, affine=True, track_running_stats=True)
        )
      )
      (7): InvertedResidual(
        (conv): Sequential(
          (0): Conv2d(56, 336, kernel_size=(1, 1), stride=(1, 1), bias=False)
          (1): BatchNorm2d(336, eps=1e-05, momentum=0.1, affine=True, track_running_stats=True)
          (2): ReLU6(inplace=True)
          (3): Conv2d(336, 336, kernel_size=(5, 5), stride=(1, 1), padding=(2, 2), groups=336, bias=False)
          (4): BatchNorm2d(336, eps=1e-05, momentum=0.1, affine=True, track_running_stats=True)
          (5): ReLU6(inplace=True)
          (6): Conv2d(336, 56, kernel_size=(1, 1), stride=(1, 1), bias=False)
          (7): BatchNorm2d(56, eps=1e-05, momentum=0.1, affine=True, track_running_stats=True)
        )
      )
      (8): InvertedResidual(
        (conv): Sequential(
          (0): Conv2d(56, 168, kernel_size=(1, 1), stride=(1, 1), bias=False)
          (1): BatchNorm2d(168, eps=1e-05, momentum=0.1, affine=True, track_running_stats=True)
          (2): ReLU6(inplace=True)
          (3): Conv2d(168, 168, kernel_size=(3, 3), stride=(2, 2), padding=(1, 1), groups=168, bias=False)
          (4): BatchNorm2d(168, eps=1e-05, momentum=0.1, affine=True, track_running_stats=True)
          (5): ReLU6(inplace=True)
          (6): Conv2d(168, 112, kernel_size=(1, 1), stride=(1, 1), bias=False)
          (7): BatchNorm2d(112, eps=1e-05, momentum=0.1, affine=True, track_running_stats=True)
        )
      )
      (9): InvertedResidual(
        (conv): Sequential(
          (0): Conv2d(112, 672, kernel_size=(1, 1), stride=(1, 1), bias=False)
          (1): BatchNorm2d(672, eps=1e-05, momentum=0.1, affine=True, track_running_stats=True)
          (2): ReLU6(inplace=True)
          (3): Conv2d(672, 672, kernel_size=(5, 5), stride=(1, 1), padding=(2, 2), groups=672, bias=False)
          (4): BatchNorm2d(672, eps=1e-05, momentum=0.1, affine=True, track_running_stats=True)
          (5): ReLU6(inplace=True)
          (6): Conv2d(672, 112, kernel_size=(1, 1), stride=(1, 1), bias=False)
          (7): BatchNorm2d(112, eps=1e-05, momentum=0.1, affine=True, track_running_stats=True)
        )
      )
      (10): InvertedResidual(
        (conv): Sequential(
          (0): Conv2d(112, 336, kernel_size=(1, 1), stride=(1, 1), bias=False)
          (1): BatchNorm2d(336, eps=1e-05, momentum=0.1, affine=True, track_running_stats=True)
          (2): ReLU6(inplace=True)
          (3): Conv2d(336, 336, kernel_size=(3, 3), stride=(1, 1), padding=(1, 1), groups=336, bias=False)
          (4): BatchNorm2d(336, eps=1e-05, momentum=0.1, affine=True, track_running_stats=True)
          (5): ReLU6(inplace=True)
          (6): Conv2d(336, 112, kernel_size=(1, 1), stride=(1, 1), bias=False)
          (7): BatchNorm2d(112, eps=1e-05, momentum=0.1, affine=True, track_running_stats=True)
        )
      )
      (11): InvertedResidual(
        (conv): Sequential(
          (0): Conv2d(112, 672, kernel_size=(1, 1), stride=(1, 1), bias=False)
          (1): BatchNorm2d(672, eps=1e-05, momentum=0.1, affine=True, track_running_stats=True)
          (2): ReLU6(inplace=True)
          (3): Conv2d(672, 672, kernel_size=(5, 5), stride=(1, 1), padding=(2, 2), groups=672, bias=False)
          (4): BatchNorm2d(672, eps=1e-05, momentum=0.1, affine=True, track_running_stats=True)
          (5): ReLU6(inplace=True)
          (6): Conv2d(672, 112, kernel_size=(1, 1), stride=(1, 1), bias=False)
          (7): BatchNorm2d(112, eps=1e-05, momentum=0.1, affine=True, track_running_stats=True)
        )
      )
      (12): InvertedResidual(
        (conv): Sequential(
          (0): Conv2d(112, 336, kernel_size=(1, 1), stride=(1, 1), bias=False)
          (1): BatchNorm2d(336, eps=1e-05, momentum=0.1, affine=True, track_running_stats=True)
          (2): ReLU6(inplace=True)
          (3): Conv2d(336, 336, kernel_size=(3, 3), stride=(1, 1), padding=(1, 1), groups=336, bias=False)
          (4): BatchNorm2d(336, eps=1e-05, momentum=0.1, affine=True, track_running_stats=True)
          (5): ReLU6(inplace=True)
          (6): Conv2d(336, 128, kernel_size=(1, 1), stride=(1, 1), bias=False)
          (7): BatchNorm2d(128, eps=1e-05, momentum=0.1, affine=True, track_running_stats=True)
        )
      )
      (13): InvertedResidual(
        (conv): Sequential(
          (0): Conv2d(128, 384, kernel_size=(1, 1), stride=(1, 1), bias=False)
          (1): BatchNorm2d(384, eps=1e-05, momentum=0.1, affine=True, track_running_stats=True)
          (2): ReLU6(inplace=True)
          (3): Conv2d(384, 384, kernel_size=(3, 3), stride=(1, 1), padding=(1, 1), groups=384, bias=False)
          (4): BatchNorm2d(384, eps=1e-05, momentum=0.1, affine=True, track_running_stats=True)
          (5): ReLU6(inplace=True)
          (6): Conv2d(384, 128, kernel_size=(1, 1), stride=(1, 1), bias=False)
          (7): BatchNorm2d(128, eps=1e-05, momentum=0.1, affine=True, track_running_stats=True)
        )
      )
      (14): InvertedResidual(
        (conv): Sequential(
          (0): Conv2d(128, 768, kernel_size=(1, 1), stride=(1, 1), bias=False)
          (1): BatchNorm2d(768, eps=1e-05, momentum=0.1, affine=True, track_running_stats=True)
          (2): ReLU6(inplace=True)
          (3): Conv2d(768, 768, kernel_size=(3, 3), stride=(1, 1), padding=(1, 1), groups=768, bias=False)
          (4): BatchNorm2d(768, eps=1e-05, momentum=0.1, affine=True, track_running_stats=True)
          (5): ReLU6(inplace=True)
          (6): Conv2d(768, 128, kernel_size=(1, 1), stride=(1, 1), bias=False)
          (7): BatchNorm2d(128, eps=1e-05, momentum=0.1, affine=True, track_running_stats=True)
        )
      )
      (15): InvertedResidual(
        (conv): Sequential(
          (0): Conv2d(128, 768, kernel_size=(1, 1), stride=(1, 1), bias=False)
          (1): BatchNorm2d(768, eps=1e-05, momentum=0.1, affine=True, track_running_stats=True)
          (2): ReLU6(inplace=True)
          (3): Conv2d(768, 768, kernel_size=(5, 5), stride=(1, 1), padding=(2, 2), groups=768, bias=False)
          (4): BatchNorm2d(768, eps=1e-05, momentum=0.1, affine=True, track_running_stats=True)
          (5): ReLU6(inplace=True)
          (6): Conv2d(768, 128, kernel_size=(1, 1), stride=(1, 1), bias=False)
          (7): BatchNorm2d(128, eps=1e-05, momentum=0.1, affine=True, track_running_stats=True)
        )
      )
      (16): InvertedResidual(
        (conv): Sequential(
          (0): Conv2d(128, 384, kernel_size=(1, 1), stride=(1, 1), bias=False)
          (1): BatchNorm2d(384, eps=1e-05, momentum=0.1, affine=True, track_running_stats=True)
          (2): ReLU6(inplace=True)
          (3): Conv2d(384, 384, kernel_size=(7, 7), stride=(2, 2), padding=(3, 3), groups=384, bias=False)
          (4): BatchNorm2d(384, eps=1e-05, momentum=0.1, affine=True, track_running_stats=True)
          (5): ReLU6(inplace=True)
          (6): Conv2d(384, 256, kernel_size=(1, 1), stride=(1, 1), bias=False)
          (7): BatchNorm2d(256, eps=1e-05, momentum=0.1, affine=True, track_running_stats=True)
        )
      )
      (17): InvertedResidual(
        (conv): Sequential(
          (0): Conv2d(256, 1536, kernel_size=(1, 1), stride=(1, 1), bias=False)
          (1): BatchNorm2d(1536, eps=1e-05, momentum=0.1, affine=True, track_running_stats=True)
          (2): ReLU6(inplace=True)
          (3): Conv2d(1536, 1536, kernel_size=(5, 5), stride=(1, 1), padding=(2, 2), groups=1536, bias=False)
          (4): BatchNorm2d(1536, eps=1e-05, momentum=0.1, affine=True, track_running_stats=True)
          (5): ReLU6(inplace=True)
          (6): Conv2d(1536, 256, kernel_size=(1, 1), stride=(1, 1), bias=False)
          (7): BatchNorm2d(256, eps=1e-05, momentum=0.1, affine=True, track_running_stats=True)
        )
      )
      (18): InvertedResidual(
        (conv): Sequential(
          (0): Conv2d(256, 768, kernel_size=(1, 1), stride=(1, 1), bias=False)
          (1): BatchNorm2d(768, eps=1e-05, momentum=0.1, affine=True, track_running_stats=True)
          (2): ReLU6(inplace=True)
          (3): Conv2d(768, 768, kernel_size=(5, 5), stride=(1, 1), padding=(2, 2), groups=768, bias=False)
          (4): BatchNorm2d(768, eps=1e-05, momentum=0.1, affine=True, track_running_stats=True)
          (5): ReLU6(inplace=True)
          (6): Conv2d(768, 256, kernel_size=(1, 1), stride=(1, 1), bias=False)
          (7): BatchNorm2d(256, eps=1e-05, momentum=0.1, affine=True, track_running_stats=True)
        )
      )
      (19): InvertedResidual(
        (conv): Sequential(
          (0): Conv2d(256, 768, kernel_size=(1, 1), stride=(1, 1), bias=False)
          (1): BatchNorm2d(768, eps=1e-05, momentum=0.1, affine=True, track_running_stats=True)
          (2): ReLU6(inplace=True)
          (3): Conv2d(768, 768, kernel_size=(3, 3), stride=(1, 1), padding=(1, 1), groups=768, bias=False)
          (4): BatchNorm2d(768, eps=1e-05, momentum=0.1, affine=True, track_running_stats=True)
          (5): ReLU6(inplace=True)
          (6): Conv2d(768, 256, kernel_size=(1, 1), stride=(1, 1), bias=False)
          (7): BatchNorm2d(256, eps=1e-05, momentum=0.1, affine=True, track_running_stats=True)
        )
      )
      (20): InvertedResidual(
        (conv): Sequential(
          (0): Conv2d(256, 1536, kernel_size=(1, 1), stride=(1, 1), bias=False)
          (1): BatchNorm2d(1536, eps=1e-05, momentum=0.1, affine=True, track_running_stats=True)
          (2): ReLU6(inplace=True)
          (3): Conv2d(1536, 1536, kernel_size=(3, 3), stride=(1, 1), padding=(1, 1), groups=1536, bias=False)
          (4): BatchNorm2d(1536, eps=1e-05, momentum=0.1, affine=True, track_running_stats=True)
          (5): ReLU6(inplace=True)
          (6): Conv2d(1536, 432, kernel_size=(1, 1), stride=(1, 1), bias=False)
          (7): BatchNorm2d(432, eps=1e-05, momentum=0.1, affine=True, track_running_stats=True)
        )
      )
    )
    (conv_1x1_bn): Sequential(
      (0): Conv2d(432, 960, kernel_size=(1, 1), stride=(1, 1), bias=False)
      (1): BatchNorm2d(960, eps=1e-05, momentum=0.1, affine=True, track_running_stats=True)
      (2): ReLU(inplace=True)
    )
  )
  (head): LinearHead(
    (pool_layer): FastGlobalAvgPool2d()
    (classifier): Linear(in_features=960, out_features=1000, bias=False)
  )
)
[commondataset.py:  39]: Constructing dataset from train_list_modified.txt...
[commondataset.py:  53]: Number of images: 1281167
[commondataset.py:  54]: Number of classes: 1000
[commondataset.py:  39]: Constructing dataset from val_list_modified.txt...
[commondataset.py:  53]: Number of images: 50000
[commondataset.py:  54]: Number of classes: 1000
…
